{"class_name": "Sequential", "keras_version": "1.0.7", "config": [{"class_name": "Embedding", "config": {"trainable": true, "name": "embedding_1", "activity_regularizer": null, "W_constraint": null, "init": "uniform", "input_dtype": "int32", "mask_zero": false, "input_dim": 40000, "batch_input_shape": [null, 20], "W_regularizer": null, "dropout": 0.0, "output_dim": 220, "input_length": 20}}, {"class_name": "Dropout", "config": {"p": 0.25, "trainable": true, "name": "dropout_1"}}, {"class_name": "Convolution1D", "config": {"W_constraint": null, "b_constraint": null, "name": "convolution1d_1", "activity_regularizer": null, "trainable": true, "filter_length": 3, "init": "uniform", "bias": true, "nb_filter": 250, "input_dim": null, "subsample_length": 1, "border_mode": "valid", "b_regularizer": null, "W_regularizer": null, "activation": "relu", "input_length": null}}, {"class_name": "MaxPooling1D", "config": {"stride": 2, "pool_length": 2, "trainable": true, "name": "maxpooling1d_1", "border_mode": "valid"}}, {"class_name": "Flatten", "config": {"trainable": true, "name": "flatten_1"}}, {"class_name": "Dense", "config": {"W_constraint": null, "b_constraint": null, "name": "dense_1", "activity_regularizer": null, "trainable": true, "init": "glorot_uniform", "bias": true, "input_dim": null, "b_regularizer": null, "W_regularizer": null, "activation": "linear", "output_dim": 250}}, {"class_name": "Activation", "config": {"activation": "relu", "trainable": true, "name": "activation_1"}}, {"class_name": "Dropout", "config": {"p": 0.25, "trainable": true, "name": "dropout_2"}}, {"class_name": "Dense", "config": {"W_constraint": null, "b_constraint": null, "name": "dense_2", "activity_regularizer": null, "trainable": true, "init": "glorot_uniform", "bias": true, "input_dim": null, "b_regularizer": null, "W_regularizer": null, "activation": "linear", "output_dim": 6}}, {"class_name": "Activation", "config": {"activation": "softmax", "trainable": true, "name": "activation_2"}}]}